marlenv/runs/ppo/20251228-155100/best_model.pt (torch, 958645 bytes, 33 tensors)

CNN_feature.0.weight f4 [32, 8, 3, 3]
0.29192135 -0.11213343 -0.00873086 -0.044620745 -0.26040187 0.100874685 0.35081154 0.02523996
0.24662274 -0.14954355 -0.17906274 -0.11200957 0.007881112 0.11120328 0.015041187 0.08531774
0.08438951 0.101130284 -0.013309361 0.16006911 -0.25093257 -0.05856576 -0.14199622 0.08701774
0.0948125 0.20714065 0.3387705 0.050210357 0.03505051 0.16143353 0.17853945 -0.1818101
-0.16876118 0.15538618 -0.20247905 0.26186737 -0.020683898 0.055787764 -0.08620499 0.05611784
0.29870155 0.20495397 0.0751788 -0.10016008 0.10996755 0.21093102 0.34439743 0.08812156
0.08381832 0.016759686 0.019468367 -0.1996854 0.09727389 0.11305915 0.08924987 0.2464614
-0.101890616 0.041675407 0.20467928 -0.4004137 0.2772333 0.025584947 0.08853409 0.11301238
-0.054865252 0.2700829 0.036436703 -0.1141786 -0.16854045 -0.27829927 -0.08905395 -0.21744196
0.13829261 -0.11452392 0.1753889 -0.22751154 -0.02117009 -0.293636 -0.017464671 -0.2914889
-0.015682794 -0.06439464 -0.17113179 -0.15741475 0.14207695 0.40591916 -0.121739775 0.010629493
0.013307629 0.040574495 0.1876401 0.10299125 0.1625024 -0.03984091 0.052823603 0.18736811
-0.21226217 0.17192468 -0.13842987 0.106885955 0.07629829 0.15631372 -0.0072617875 -0.2514175
0.06726425 0.09053021 0.015906282 -0.22730228 -0.47163445 0.13891543 0.025373448 0.1972348
-0.14174676 0.06784196 0.19010325 0.119450666 0.22501628 0.14158535 0.0015854118 -0.2735452
0.2365182 -0.21969096 0.0476342 0.1045827 0.009427604 0.07104455 0.023232767 -0.25063536
0.31801358 -0.2448039 0.010565078 -0.22275107 -0.0754622 0.22797793 0.046467323 -0.09533229
0.17366536 0.07288125 -0.077137835 0.03800842 -0.057571176 0.19845551 0.14513278 0.2112165
0.13077143 -0.07567724 -0.06738448 -0.10748494 0.22490066 -0.17064779 -0.09078666 -0.10681206
-0.06795368 -0.036909092 -0.0801261 -0.22211006 0.009781463 0.027349366 -0.11108941 -0.12691008
-0.26658228 0.06775188 -0.03733796 0.10287209 -0.015550754 -0.095802754 0.06358263 -0.04485931
-0.047257703 -0.13583662 -0.09171308 -0.38564363 0.23928674 -0.19729094 -0.25202864 0.010292723
-0.13785279 -0.08835406 -0.053145524 -0.047621053 -0.041185915 -0.3545958 -0.1472663 -0.038385723
-0.1929765 0.01499343 -0.0012685831 0.1974262 -0.2858993 0.13581534 0.15585631 0.21232837
0.086310364 -0.04062351 -0.2196642 -0.156996 -0.14824857 0.07651831 -0.04273688 -0.078583255
0.16984329 0.15178372 0.27026245 0.22160916 0.03662168 0.1283643 -0.07805443 0.042582717
0.3250439 -0.048861973 -0.2368655 -0.07902952 -0.32715192 -0.30576745 -0.18346609 -0.41663098
-0.014380586 0.056357987 0.32388484 -0.016807353 0.12578265 -0.16915335 -0.13586019 0.18811053
-0.106944434 -0.16693276 0.16221228 0.046848375 -0.009009935 0.011693778 -0.0768379 -0.42897427
0.2241319 0.4486849 0.009628587 0.010806142 -0.19323641 -0.14056739 -0.24804305 0.47099346
-0.09271481 -0.15113117 -0.10390082 -0.04465546 0.01311146 0.060494944 -0.09199516 0.11772541
-0.07869232 0.22472177 -0.3251729 -0.06963006 0.22058149 -0.05503006 -0.0059336014 -0.24551612
00000000: b776 953e 36a6 e5bd e20b 0fbc 3ec4 36bd
00000010: 6553 85be 6397 ce3d 929d b33e 08c4 ce3c
00000020: ac8a 7c3e f221 19be 395c 37be 4665 e5bd
00000030: c81f 013c 8cbe e33d 506f 763c 11bb ae3d
00000040: 68d4 ac3d 651d cf3d 820f 5abc 28e9 233e
00000050: 3c7a 80be a6e2 6fbd 7567 11be 5b36 b23d
00000060: 0e2d c23d ae1c 543e 5473 ad3e 60a9 4d3d
00000070: 2091 0f3d d54e 253e 0cd3 363e 6d2c 3abe
00000080: bbcf 2cbe 8e1d 1f3e ab56 4fbe 7b13 863e
00000090: 4771 a9bc b681 643d 3e8c b0bd d2db 653d
000000a0: 69ef 983e 74df 513e 58f7 993d ba20 cdbd
000000b0: ab36 e13d 4dfe 573e dc54 b03e 1479 b43d
000000c0: f0a8 ab3d 9c4b 893c 207c 9f3c 547a 4cbe
000000d0: 8937 c73d 8e8b e73d a3c8 b63d 6160 7c3e
000000e0: 07ac d0bd d5b3 2a3d 7297 513e 0603 cdbe
000000f0: 86f1 8d3e 8697 d13c 5c51 b53d 0973 e73d
00000100: 63ba 60bd 4e48 8a3e a73e 153d 78d6 e9bd
00000110: de95 2cbe 3e7d 8ebe eb61 b6bd 1ba9 5ebe
00000120: 949c 0d3e 848b eabd 2699 333e c9f8 68be
00000130: e66c adbc 7557 96be 1212 8fbc 083e 95be
00000140: 3479 80bc 56e1 83bd 2c3d 2fbe 5531 21be
00000150: 9f7c 113e a3d4 cf3e b452 f9bd 5327 2e3c
00000160: 3e08 5a3c 7131 263d ba24 403e 14ed d23d
00000170: 0767 263e 3930 23bd 905d 583d 6ddd 3f3e
00000180: 415b 59be 060d 303e 8fc0 0dbe 06e7 da3d
00000190: 4742 9c3d b410 203e 4af4 edbb cbb9 80be
000001a0: d7c1 893d e767 b93d e44d 823c eec1 68be
000001b0: 127a f1be d93f 0e3e fadb cf3c ebf7 493e
000001c0: 1026 11be baf0 8a3d 6daa 423e 8da2 f43d
000001d0: ab6a 663e c0fb 103e 98cd cf3a 1e0e 8cbe
000001e0: d431 723e abf6 60be 141c 433d 742f d63d
000001f0: 3d76 1a3c ce7f 913d a552 be3c 4753 80be
00000200: add2 a23e e0ad 7abe 2619 2d3c db18 64be
00000210: ed8b 9abd 0c73 693e 8554 3e3d 933d c3bd
00000220: 55d5 313e c442 953d 71fa 9dbd b8ae 1b3d
00000230: c1cf 6bbd ec37 4b3e b09d 143e 2349 583e
00000240: f2e8 053e abfc 9abd e000 8abd 1021 dcbd
00000250: 5c4c 663e 4bbe 2ebe 5bee b9bd 48c0 dabd
00000260: 4d2b 8bbd fd2d 17bd 2719 a4bd d270 63be
00000270: 6e42 203c c70b e03c d882 e3bd b7f4 01be
00000280: 797d 88be 7fc1 8a3d b0ef 18bd 9aae d23d
00000290: 97c8 7ebc 3c34 c4bd 9c37 823d 65be 37bd
000002a0: 4b91 41bd c118 0bbe 11d4 bbbd 1573 c5be
000002b0: 9507 753e a306 4abe e609 81be cfa2 283c
000002c0: 4829 0dbe f9f2 b4bd 1faf 59bd 4b0e 43bd
000002d0: 90b2 28bd 958d b5be facc 16be 593a 1dbd
000002e0: a29b 45be 01a7 753c 9646 a6ba 182a 4a3e
000002f0: 6561 92be 2d13 0b3e cc98 1f3e 9c6c 593e
00000300: 7dc3 b03d d664 26bd a7ef 60be 8fc3 20be
00000310: 79ce 17be a2b5 9c3d de0c 2fbd 42f0 a0bd
00000320: 66eb 2d3e 316d 1b3e d75f 8a3e 83ed 623e
00000330: 9d00 163d ee71 033e 00db 9fbd 376b 2e3d
00000340: 276c a63e 7e23 48bd df8c 72be 3bda a1bd
00000350: 7580 a7be 8d8d 9cbe 89de 3bbe a850 d5be
00000360: 8d9c 6bbc a2d7 663d 3cd4 a53e 93af 89bc
00000370: 2bcd 003e 8936 2dbe ef1e 0bbe 0ca0 403e
00000380: af05 dbbd 6cf0 2abe fa1a 263e 15e4 3f3d
00000390: 689e 13bc 4397 3f3c 305d 9dbd 84a2 dbbe
000003a0: d582 653e 07ba e53e 39c1 1d3c 3f0c 313c
000003b0: c4df 45be e6f0 0fbe fffe 7dbe 0e26 f13e
000003c0: 43e1 bdbd 21c2 1abe f4c9 d4bd a5e8 36bd
000003d0: 73d1 563c 8cc9 773d f567 bcbd 051a f13d
000003e0: 7029 a1bd 771d 663e 107d a6be 349a 8ebd
000003f0: 1de0 613e 3367 61bd a86e c2bb 9468 7bbe

CNN_feature.0.bias f4 [32]
-0.019122146 0.002096328 -0.014834649 -0.0022609928 -0.00979102 -0.0029008244 -0.012407579 0.010768132
-0.002670281 -0.0008451191 0.015293211 -0.011723645 -0.0002644918 -0.0029636575 -0.0023459357 -0.0017815093
-0.0005780461 -0.008657039 -0.009551797 -0.0038322401 -4.195285e-05 -0.0021218427 0.0029855217 -0.004327461
-0.0046763783 -0.01724635 -0.0068588336 -0.002184146 -0.011109148 -0.0023266433 0.0027046471 -0.0018504992
00000000: 0ca6 9cbc 8c62 093b 070d 73bc 2a2d 14bb
00000010: 846a 20bc c21b 3ebb 2949 4bbc d26c 303c
00000020: e2ff 2ebb fc8a 5dba 6090 7a3c 8814 40bc
00000030: 7dab 8ab9 ec39 42bb 45be 19bb 8881 e9ba
00000040: 0488 17ba 41d6 0dbc 247f 1cbc 5226 7bbb
00000050: 88f6 2fb8 9d0e 0bbb bea8 433b 60cd 8dbb
00000060: 4e3c 99bb 3848 8dbc 11c0 e0bb e423 0fbb
00000070: 2503 36bc 997a 18bb 7340 313b 738c f2ba

CNN_feature.3.weight f4 [32, 32, 3, 3]
-0.01233511 0.082955666 -0.036427382 0.030648531 -0.08028201 -0.007761669 -0.07198365 -0.063913256
-0.14868209 0.0060060974 0.18495455 -0.062215447 0.042376544 0.07902193 0.06622908 -0.16019544
0.015997596 -0.02264948 -0.01898059 -0.20990288 -0.046702433 -0.07718293 0.05360588 -0.06345709
-0.13472696 0.13156234 -0.072788194 0.11937348 0.11805392 0.04413447 -0.04092358 -0.11385141
0.07944961 0.04654077 0.103264704 -0.013113591 0.051796496 -0.022357896 0.08254495 -0.04476898
0.017895916 0.12234187 -0.039424844 0.0240963 -0.16925716 -0.0061321114 0.007213151 0.00027989407
0.084935084 -0.09522462 0.023570258 0.09252173 -0.0149717145 0.117700905 -0.10319144 -0.033878405
0.13580044 -0.07138473 0.07497505 -0.023562215 -0.13602602 -0.0019683219 -0.04140643 0.016924925
0.087725 0.0118661625 0.11055169 -0.058213506 -0.051728174 0.0021465304 0.085908316 0.12352896
0.006564791 0.040907964 -0.006017776 -0.07244048 -0.001988802 -0.034504276 0.10761608 -0.00039694348
0.08658274 -0.19968931 -0.01695832 -0.028521512 -0.009812632 0.054419737 0.020319303 -0.10559922
-0.029600875 -0.047439195 -0.121608265 -0.01598749 -0.11200225 -0.234572 0.09220748 0.017301934
-0.12933086 -0.014663434 0.10568693 -0.027132824 0.024076149 0.068176314 -0.026384646 -0.06641926
0.075059436 -0.055490002 -0.04328415 0.057356894 0.11999689 0.01707734 -0.0072612753 -0.048643783
0.06947293 0.086169705 -0.07999388 -0.013649882 -0.012281215 0.022738734 0.046728197 -0.11282859
0.09535941 0.12742439 -0.031617433 -0.054518964 0.010786045 0.22008869 -0.018721873 -0.14653608
-0.17348999 -0.08199979 0.1147276 0.09919187 -0.06646893 0.119344875 -0.056256004 0.021580493
-0.009335813 -0.16683474 0.07122015 0.05856025 0.04915271 0.14280567 -0.061696745 -0.1312577
-0.0060816845 -0.14961118 0.019602785 0.15196386 0.012582272 0.14930336 0.005931383 0.037790235
-0.018810824 0.002359787 0.14492801 -0.0492822 0.08953432 0.018615274 -0.011332256 -0.10369011
0.120493 0.1001208 0.049531896 0.09515377 -0.14471929 -0.11892908 0.009108328 0.0011919917
-0.048398986 -0.01629503 0.14496753 0.014485602 -0.12884218 -0.0040388433 -0.08654115 0.032565843
-0.059494585 -0.063867375 -0.040226057 0.062139463 -0.04786639 0.020861309 0.04655353 0.21416435
0.023022998 -0.03376939 0.09277625 0.02143514 -0.034300845 0.008373523 0.21485351 0.06134049
-0.009945833 0.12439343 -0.10940695 0.110705234 -0.09959368 0.021399092 -0.03536315 -0.022919104
-0.16292371 0.02438506 0.12380486 -0.050781175 0.084489696 -0.016208446 0.007589057 0.0042098337
0.065264605 0.0075376933 -0.05473317 0.09684423 0.012197726 -0.10164965 0.074748956 0.024358518
0.023652798 -0.06619954 0.069203176 0.17542277 0.04540752 -0.086550325 0.0048981686 -0.14361537
-0.024637524 -0.014891167 0.025050882 -0.043642677 0.11511494 -0.086673036 0.029069245 0.05634629
-0.08302579 0.027754327 -0.0031847365 0.14314419 -0.106797256 0.10949972 -0.021706725 0.056400888
-0.075611584 -0.105206735 -0.008896179 0.027876811 0.08394801 -0.036882795 0.067302644 0.035437454
-0.17023733 0.057541072 0.009451077 0.028148377 0.13639987 -0.024499046 -0.14059207 -0.022249041
00000000: 3419 4abc a9e4 a93d e134 15bd a112 fb3c
00000010: e56a a4bd 9955 febb 2a6c 93bd f4e4 82bd
00000020: 1e40 18be ccce c43b ba64 3d3e a0d5 7ebd
00000030: 0793 2d3d 40d6 a13d 1da3 873d 460a 24be
00000040: 640d 833c 678b b9bc 2f7d 9bbc c8f0 56be
00000050: 0d4b 3fbd 1612 9ebd d791 5b3d caf5 81bd
00000060: ddf5 09be 47b8 063e fa11 95bd 157a f43d
00000070: 41c6 f13d 59c6 343d 7c9f 27bd ee2a e9bd
00000080: 7ab6 a23d 89a1 3e3d 727c d33d 63da 56bc
00000090: 9028 543d e827 b7bc 540d a93d ae5f 37bd
000000a0: 759a 923c 608e fa3d f27b 21bd 9b65 c53c
000000b0: c051 2dbe e1ef c8bb 4c5c ec3b bfbe 9239
000000c0: 72f2 ad3d 2005 c3bd 6a16 c13c 087c bd3d
000000d0: ec4b 75bc 2c0d f13d 0956 d3bd 15c4 0abd
000000e0: 450f 0b3e 2832 92bd 858c 993d 8c05 c1bc
000000f0: 684a 0bbe f6fe 00bb ca99 29bd 24a6 8a3c
00000100: 2aa9 b33d 4b6a 423c ed68 e23d 4971 6ebd
00000110: ece0 53bd ceac 0c3b b3f0 af3d c0fc fc3d
00000120: 751d d73b 1c8f 273d c430 c5bb ad5b 94bd
00000130: 9056 02bb 5b54 0dbd d265 dc3d da1c d0b9
00000140: 4b52 b13d 5b7b 4cbe 2dec 8abc f2a5 e9bc
00000150: 29c5 20bc 3be7 5e3d ab74 a63c 6744 d8bd
00000160: 897d f2bc 9a4f 42bd c10d f9bd 32f8 82bc
00000170: 7061 e5bd a433 70be 46d7 bc3d c9bc 8d3c
00000180: 4f6f 04be e63e 70bc 6472 d83d a845 debc
00000190: 583b c53c 06a0 8b3d 9d24 d8bc d206 88bd
000001a0: c3b8 993d 7c49 63bd b94a 31bd 10ef 6a3d
000001b0: eec0 f53d c7e5 8b3c feef edbb b43e 47bd
000001c0: d347 8e3d be79 b03d d5d3 a3bd c1a3 5fbc
000001d0: 2637 49bc 9546 ba3c 1166 3f3d ad12 e7bd
000001e0: cb4b c33d 8a7b 023e 4881 01bd 474f 5fbd
000001f0: f4b7 303c ee5e 613e 9d5e 99bc 8e0d 16be
00000200: 5ca7 31be 82ef a7bd 4ef6 ea3d 1b25 cb3d
00000210: dd20 88bd 166b f43d b26c 66bd 93c9 b03c
00000220: 3df5 18bc bad6 2abe dfdb 913d dfdc 6f3d
00000230: 5a54 493d a63b 123e bab5 7cbd 6b68 06be
00000240: de48 c7bb ac33 19be 0596 a03c 6a9c 1b3e
00000250: e025 4e3c fbe2 183e 0c5c c23b efc9 1a3d
00000260: 2819 9abc a8a6 1a3b 0268 143e 22dc 49bd
00000270: c55d b73d 0f7f 983c edaa 39bc 7b5b d4bd
00000280: 09c5 f63d 220c cd3d f5e1 4a3d fbdf c23d
00000290: 4b31 14be 1791 f3bd 193b 153c 9b3c 9c3a
000002a0: 043e 46bd 287d 85bc 5e72 143e 0555 6d3c
000002b0: 34ef 03be 4658 84bb 7d3c b1bd c363 053d
000002c0: 98b0 73bd e6cc 82bd 14c4 24bd f385 7e3d
000002d0: 8c0f 44bd 56e5 aa3c eaae 3e3d e64d 5b3e
000002e0: ba9a bc3c c651 0abd 7901 be3d bf98 af3c
000002f0: 0b7f 0cbd 1a31 093c 8f02 5c3e 2a40 7b3d
00000300: d9f3 22bc fcc1 fe3d c010 e0bd 6db9 e23d
00000310: c5f7 cbbd 264d af3c f3d8 10bd d8c0 bbbc
00000320: 79d5 26be 2dc3 c73c 678d fd3d ecff 4fbd
00000330: ef08 ad3d 93c7 84bc a0ad f83b a5f2 893b
00000340: 73a9 853d c1fe f63b e32f 60bd 4556 c63d
00000350: f9d8 473c b12d d0bd fb15 993d 848b c73c
00000360: 83c3 c13c a093 87bd 65ba 8d3d 07a2 333e
00000370: 3cfd 393d 4c41 b1bd d180 a03b e80f 13be
00000380: a2d4 c9bc 15fa 73bc 8237 cd3c aac2 32bd
00000390: 62c1 eb3d a281 b1bd a022 ee3c 5ecb 663d
000003a0: 6d09 aabd 0b5d e33c 03b7 50bb 6494 123e
000003b0: 85b8 dabd 6441 e03d 4dd2 b1bc 9e04 673d
000003c0: 3fda 9abd a176 d7bd 47c1 11bc e95d e43c
000003d0: efec ab3d 6a12 17bd f8d5 893d dd26 113d
000003e0: b252 2ebe 30b0 6b3d b1d8 1a3c 6d97 e63c
000003f0: 68ac 0b3e 39b2 c8bc 5ef7 0fbe 9f43 b6bc

CNN_feature.3.bias f4 [32]
0.0012539292 -0.0068766316 -0.009997355 -0.004029287 -0.0022486784 0.0022705821 -0.0036170704 0.010297346
-0.0010962016 0.012557622 -0.0062839296 0.0038848117 -0.005867371 -0.013835178 0.0040327157 0.003882561
-0.0018242409 -0.008497676 0.0148014575 0.0035393226 -0.014578178 0.0023532577 0.014463993 0.0014582216
0.0029851282 0.010734618 -0.0029471964 -0.004713269 -0.014219149 -0.012095568 -0.005624997 -0.004669334
00000000: e25a a43a 5e55 e1bb f2cb 23bc 1c08 84bb
00000010: 905e 13bb 0cce 143b 5f0c 6dbb 33b6 283c
00000020: 6cae 8fba 7cbe 4d3c 6ce9 cdbb 5398 7e3b
00000030: 1343 c0bb f1ac 62bc df24 843b 9172 7e3b
00000040: 5e1b efba d639 0bbc d081 723c fbf3 673b
00000050: 4fd9 6ebc 1d39 1a3b 62fa 6c3c cc21 bf3a
00000060: 24a2 433b 40e0 2f3c c025 41bb c471 9abb
00000070: 6ff7 68bc 7d2c 46bc e551 b8bb 3601 99bb

actor.0.weight f4 [256, 128]
0.12469797 0.1482582 0.09408574 0.14399159 -0.04291554 -0.0426945 -0.031055294 0.040548325
-9.291059e-05 -0.043176338 -0.10185205 -0.022355532 -0.10638358 0.119434066 0.11379748 -0.04845037
-0.025115537 -0.045406636 -0.024141949 -0.11649795 0.016650027 0.019178495 0.016300673 -0.16185771
-0.06756807 -0.20502014 -0.03516409 -0.13664618 0.09769314 0.15554537 0.1599915 -0.099147245
0.031200178 0.05817355 0.13454196 0.03164639 0.047605332 0.045161266 0.025615832 -0.052974977
-0.07971869 -0.02153236 -0.1014283 0.07754142 0.018885672 -0.11076563 -0.061687782 0.05620067
-0.057915594 0.013944729 0.08395568 0.09721318 -0.077137664 -0.012396265 0.039835118 -0.018165212
0.016426995 -0.08474092 0.03025747 -0.019659245 -0.01677732 0.18678163 -0.13561733 -0.07150584
0.14340776 -0.11389098 -0.027017906 0.04742378 -0.015404136 -0.101298966 -0.110698156 0.028316101
-0.010534063 0.06399986 0.16477118 0.057499345 -0.069629855 0.12819253 0.08514235 0.08232844
-0.061482366 0.1581273 -0.027905624 -0.081560634 -0.015739692 -0.033018176 -0.013236637 -0.01935541
0.17721009 0.082224846 -0.036626842 0.24164437 0.08179051 0.04087983 0.13209178 -0.081602216
-0.12260527 0.027895419 0.12961988 -0.10176938 0.113791935 0.13612805 -0.08512671 0.14016882
0.008378548 -0.015865631 0.12702781 -0.109348185 0.20389739 0.14506973 -0.020995416 -0.058754515
-0.08238904 -0.07896516 -0.114366286 0.09887438 0.022941913 0.20252058 0.06144095 -0.117852785
0.03929553 -0.03237943 0.025587628 0.04208331 0.04129083 0.02108208 0.025739335 0.050509416
-0.0078018443 0.08448705 -0.1576261 0.024140095 -0.04352194 -0.09146829 0.06658097 -0.045202337
0.07204935 0.12882447 -0.031545185 0.15399292 -0.03481793 -0.033603482 0.042779937 -0.19029212
-0.04630166 -0.027640143 -0.04972832 -0.030760372 -0.027231231 0.011264357 0.08645503 0.03948308
-0.08420904 -0.0094499495 0.13519968 0.08321606 -0.05587994 -0.068617724 0.05406445 -0.008986939
0.046506714 -0.08746304 -0.16999169 -0.14231111 -0.011618117 -0.049720597 0.005252535 -0.054526698
-0.06019085 -0.0041240933 0.07888303 -0.08704476 -0.04433505 0.051003322 0.09207868 0.12194729
0.055302825 -0.16340774 0.067098655 0.07720978 0.10753031 0.07050577 0.01604857 0.0580586
0.13302751 0.108756 -0.0018472727 0.29034632 0.05160834 0.1295851 0.025182666 0.008112079
0.15661243 0.06551004 0.01924783 0.12783128 -0.061063644 -0.05000407 -0.01078577 0.07400072
-0.010762691 -0.050127637 -0.122702375 0.06804093 -0.08263355 -0.03986846 -0.07736265 0.01761292
-0.016648676 0.12099836 -0.05260709 0.14547256 0.032777242 -0.049718454 -0.08496703 -0.0941968
0.115229875 -0.07034609 0.17516932 0.12340258 0.161478 -0.023454415 0.042473853 -0.08168659
0.07665578 0.13785756 0.016586911 -0.15970498 0.08284983 -0.007728168 0.14917128 -0.1454625
-0.0259117 -0.010475694 0.00746343 0.10217232 0.10740645 0.09784829 0.32613167 0.032046475
0.06928091 -0.03492683 0.057744548 0.09438985 0.047246337 -0.16167475 0.124806575 0.06387241
-0.016001943 0.08870931 0.049755994 0.14765966 0.13930002 -0.033492897 0.007967361 -0.09415024
00000000: a661 ff3d ffd0 173e 06b0 c03d 8872 133e
00000010: 35c8 2fbd 6ee0 2ebd ac67 febc 0016 263d
00000020: fed8 c2b8 acd9 30bd cf97 d0bd f322 b7bc
00000030: a2df d9bd d999 f43d a70e e93d e573 46bd
00000040: 19bf cdbc 4ffc 39bd 56c5 c5bc 7a96 eebd
00000050: a365 883c 381c 9d3c fd88 853c 07be 25be
00000060: 2161 8abd cdf0 51be 3908 10bd faec 0bbe
00000070: 5713 c83d 4947 1f3e d0d4 233e b60d cbbd
00000080: 8497 ff3c 6347 6e3d 5ec5 093e a59f 013d
00000090: cffd 423d 05fb 383d 4bd8 d13c 4afc 58bd
000000a0: 8d43 a3bd a264 b0bc a4b9 cfbd 09ce 9e3d
000000b0: 20b6 9a3c 17d9 e2bd 54ac 7cbd ac32 663d
000000c0: e738 6dbd 6f78 643c f5f0 ab3d b417 c73d
000000d0: 5afa 9dbd b419 4bbc 262a 233d 36cf 94bc
000000e0: e891 863c a68c adbd 84de f73c 6d0c a1bc
000000f0: 9770 89bc af43 3f3e 45df 0abe a771 92bd
00000100: 7cd9 123e ad3f e9bd a854 ddbc 703f 423d
00000110: a161 7cbc d575 cfbd b7b5 e2bd 2bf7 e73c
00000120: 1097 2cbc 5c12 833d c7b9 283e 6f84 6b3d
00000130: 199a 8ebd e744 033e 1d5f ae3d d09b a83d
00000140: efd4 7bbd 1fec 213e 569a e4bc 4309 a7bd
00000150: 87f0 80bc 113e 07bd 7bde 58bc 3d8f 9ebc
00000160: 9076 353e 8065 a83d 0706 16bd 9f71 773e
00000170: c881 a73d 9c71 273d 1143 073e 101f a7bd
00000180: 7918 fbbd ef84 e43c 13bb 043e 776c d0bd
00000190: bf0b e93d 2765 0b3e ea56 aebd 6a88 0f3e
000001a0: 2d46 093c a4f8 81bc 9413 023e f1f1 dfbd
000001b0: 7aca 503e 298d 143e 94fe abbc 93a8 70bd
000001c0: 96bb a8bd 7cb8 a1bd df38 eabd a77e ca3d
000001d0: aef0 bb3c 8e61 4f3e 81a9 7b3d cd5c f1bd
000001e0: 5af4 203d 4ba0 04bd 259d d13c 8d5f 2c3d
000001f0: 9320 293d 54b4 ac3c 4cdb d23c f6e2 4e3d
00000200: 9da6 ffbb 8c07 ad3d bd68 21be 73c1 c53c
00000210: 1044 32bd ba53 bbbd 9b5b 883d 1626 39bd
00000220: 9c8e 933d 90ea 033e 8635 01bd 52b0 1d3e
00000230: 3f9d 0ebd cea3 09bd 043a 2f3d f0db 42be
00000240: cfa6 3dbd 956d e2bc ecaf 4bbd 2dfd fbbc
00000250: 0814 dfbc 238e 383c 560f b13d 03b9 213d
00000260: ca75 acbd f6d3 1abc c971 0a3e 2f6d aa3d
00000270: 5de2 64bd 7387 8cbd af72 5d3d f43d 13bc
00000280: d37d 3e3d d31f b3bd 4d12 2ebe 01ba 11be
00000290: ea59 3ebc d3a7 4bbd 751d ac3b 6357 5fbd
000002a0: ae8a 76bd 6723 87bb 6d8d a13d 8644 b2bd
000002b0: ab98 35bd dce8 503d bf93 bc3d 80bf f93d
000002c0: 3785 623d 5c54 27be 056b 893d 2920 9e3d
000002d0: da38 dc3d 5465 903d 4a78 833c dbce 6d3d
000002e0: 5d38 083e 77bb de3d 3020 f2ba 46a8 943e
000002f0: 4463 533d f5b1 043e e14b ce3c 87e8 043c
00000300: 025f 203e 212a 863d a0ad 9d3c 34e6 023e
00000310: df1d 7abd 11d1 4cbd ccb6 30bc b18d 973d
00000320: ff55 30bc a352 4dbd 624b fbbd 0b59 8b3d
00000330: c73b a9bd 1c4d 23bd 4f70 9ebd f848 903c
00000340: ce62 88bc fdcd f73d 887a 57bd c2f6 143e
00000350: 6e41 063d 94a5 4bbd 3203 aebd 40ea c0bd
00000360: a4fd eb3d 9c11 90bd 965f 333e 7eba fc3d
00000370: 7d5a 253e 7923 c0bc 10f9 2d3d 4d4b a7bd
00000380: b5fd 9c3d 882a 0d3e 46e1 873c b489 23be
00000390: 2cad a93d 923c fdbb 5bc0 183e 1ff4 14be
000003a0: c644 d4bc 3fa2 2bbc ca8f f43b b93f d13d
000003b0: eaf7 db3d af64 c83d bbfa a63e 2a43 033d
000003c0: 26e3 8d3d 700f 0fbd 8c85 6c3d 774f c13d
000003d0: 6085 413d 118e 25be 979a ff3d 8acf 823d
000003e0: 8216 83bc 3aad b53d f1cc 4b3d 1834 173e
000003f0: aaa4 0e3e d92f 09bd 8989 023c d7d1 c0bd

actor.0.bias f4 [256]
0.005278116 0.0062654596 0.0028966884 0.002850667 -0.00023033001 -0.0079868715 0.00046697466 0.008831164
-0.006275504 3.085307e-05 -0.00015824779 0.009521878 -0.0068131695 0.010006956 0.011728682 0.0013295325
9.816029e-05 -0.0020455853 -0.0022526665 0.018012056 -0.0053330427 0.0013234875 0.008634022 -0.008231718
-0.0020911514 0.006947898 -0.007976012 0.02849133 -0.0013913508 -0.0021809363 -0.0078012 -0.003725952
-0.005212461 -0.009622037 0.003618464 0.0032019026 0.00025025097 0.005365851 0.006849432 -0.0016076479
-0.0033532598 0.0053884936 0.0067023924 0.01867105 -0.001450727 0.003073775 -0.0016902881 0.012105093
0.024310965 0.018691363 0.019913588 -0.006778439 0.012284929 0.0027129992 0.008893163 0.008368006
0.0054537808 -0.0050751274 0.016309312 0.006735207 0.010409962 0.0028683995 -0.008028663 0.0039213784
0.0024582904 -0.011771321 -0.004904999 0.0030903844 0.020861212 0.005575069 0.014064125 -0.0070692324
0.01548201 0.01609 0.01655123 -0.019796852 -0.0019100357 0.015826758 0.009120322 -0.0088214325
0.005118195 0.0023177355 0.008896332 0.021682808 0.008887439 0.014496362 0.0036249566 0.011463386
0.0059321052 0.013946133 0.016848708 0.01322758 0.010201628 0.015310453 0.0028259822 -0.012420443
0.016808629 -0.0064571192 0.007394634 -0.011652579 0.017171187 0.007923372 -0.005594379 -0.0058068484
-0.0065102614 0.012677914 0.027506415 -0.0017426073 0.010230395 0.0031843418 -0.003295486 -0.0135726435
0.03273762 0.009724116 0.013227023 -0.0059461696 0.021003928 0.011647737 0.0 -0.0010001602
0.017456932 0.0024858073 0.01862655 -0.0023245441 -0.0019520319 0.0057424754 -0.0057963654 -0.004358736
0.011483512 0.0055007976 0.009602208 0.013578773 -0.008848366 0.004587877 0.0020387291 0.0026029672
0.0011786422 -0.0044532507 -0.006216089 0.0087052435 0.0014079171 -0.00031498764 0.0078352345 0.010920749
0.008613272 -0.008832699 0.016709156 0.020218445 -0.0062682326 -0.000102780294 -0.013959959 0.021458767
-0.008363669 0.0065119276 0.013402429 -0.010157682 0.0055514057 -0.0043752086 0.01602169 0.0006479011
-0.00077371125 0.012027434 0.0092034135 0.006066634 -0.00012013589 -0.0053986646 0.009180839 0.0026086934
-0.0034474852 0.00037172562 0.0121671725 -0.0054902947 0.015913462 -0.006802801 0.004133253 0.010961866
0.0155672785 -0.0018937447 -0.004367018 0.029730152 0.0027726907 0.0050515565 0.011056159 0.020464394
0.016688937 0.00048182177 0.014342349 -0.0047013722 0.0038298552 -0.010892182 0.0033095488 0.004985508
0.017378105 -0.007315759 0.006328796 -0.0040633446 0.0036490064 0.021516912 -0.010680354 0.008098869
-0.008804275 0.00579052 0.020318141 0.0036221582 0.005777077 0.010313918 0.00870688 0.010487907
-0.0078093107 0.008211121 0.014153808 0.002429967 0.02277873 0.005958136 0.014724172 -0.0024376465
0.0063724597 -0.0034095785 0.004461302 -0.0059665767 0.01677733 0.0 0.0073717795 0.008316103
-0.011486488 0.016023632 0.005513398 0.021031339 -0.01763793 -0.003466986 0.007864736 0.0017853144
-0.004838267 0.003973576 0.018224554 0.01227882 0.005519692 0.006801777 0.002536442 0.0064127957
-0.0043667303 -0.003570255 -0.00058983424 0.009759176 0.013576581 -0.0057817963 0.005082841 -0.008735544
0.007703059 -0.0018168918 0.003877711 0.010280918 0.016677912 -0.008223395 0.00682386 0.017155785
00000000: 0cf4 ac3b 7c4e cd3b 5ed6 3d3b 42d2 3a3b
00000010: be84 71b9 5edb 02bc 47d4 f439 96b0 103c
00000020: bea2 cdbb 3b68 0138 51ef 25b9 a701 1c3c
00000030: 0241 dfbb 37f4 233c a829 403c b543 ae3a
00000040: 68db cd38 3a0f 06bb 79a1 13bb 058e 933c
00000050: cec0 aebb df78 ad3a b775 0d3c 54de 06bc
00000060: b30b 09bb 31ab e33b d2ad 02bc a666 e93c
00000070: fc5d b6ba 0aee 0ebb 35a1 ffbb 1a2f 74bb
00000080: 4bcd aabb c0a5 1dbc c123 6d3b 03d7 513b
00000090: 1e34 8339 05d4 af3b 3371 e03b b6b7 d2ba
000000a0: 5dc2 5bbb f691 b03b be9f db3b 08f4 983c
000000b0: 5226 beba 6371 493b a88c ddba 7154 463c
000000c0: ca27 c73c a11e 993c d221 a33c ab1d debb
000000d0: ba46 493c 93cc 313b a1b4 113c f619 093c
000000e0: a1b5 b23b 414d a6bb 1b9b 853c 03b3 dc3b
000000f0: 8c8e 2a3c c2fb 3b3b a78a 03bc e87e 803b
00000100: 451b 213b 80dc 40bc 1dba a0bb 0c88 4a3b
00000110: 22e5 aa3c 12af b63b 376d 663c 05a5 e7bb
00000120: 42a8 7d3c 2dcf 833c 7296 873c 022d a2bc
00000130: 2a5a faba 1ea7 813c 676d 153c c587 10bc
00000140: 88b6 a73b 26e5 173b ecc1 113c 25a0 b13c
00000150: 9f9c 113c 2682 6d3c ae90 6d3b edd0 3b3c
00000160: 1b62 c23b 527e 643c 4d06 8a3c 7eb8 583c
00000170: bb24 273c b2d8 7a3c 1d34 393b 1d7f 4bbc
00000180: 40b2 893c 3e96 d3bb b04e f23b 75ea 3ebc
00000190: 97aa 8c3c 08d1 013c 0d51 b7bb 6047 bebb
000001a0: 0854 d5bb 07b7 4f3c 2255 e13c 3368 e4ba
000001b0: 639d 273c 64b0 503b 15f9 57bb cb5f 5ebc
000001c0: e217 063d e651 1f3c 28b6 583c 16d8 c2bb
000001d0: 6e10 ac3c 26d6 3e3c 0000 0000 cf17 83ba
000001e0: d701 8f3c ede8 223b b596 983c 6157 18bb
000001f0: 52db ffba 602b bc3b 70ef bdbb bad3 8ebb
00000200: 5725 3c3c 0940 b43b 9452 1d3c 8079 5e3c
00000210: bdf8 10bc e755 963b 339c 053b 8b96 2a3b
00000220: ab7c 9a3a 93ec 91bb 55b0 cbbb 70a0 0e3c
00000230: dc89 b83a ed24 a5b9 5b5f 003c f1ec 323c
00000240: ae1e 0d3c 06b7 10bc a4e1 883c 27a1 a53c
00000250: bf65 cdbb c08b d7b8 50b8 64bc 4cca af3c
00000260: c507 09bc 0262 d53b dd95 5b3c 686c 26bc
00000270: 91e8 b53b e95d 8fbb eb3f 833c e8d7 293a
00000280: e2d2 4aba b70e 453c eac9 163c 9dca c63b
00000290: 77f1 fbb8 48e7 b0bb 3b6b 163c 9df6 2a3b
000002a0: 34ef 61bb 2be4 c239 d258 473c eee7 b3bb
000002b0: f35c 823c 08ea debb 3d70 873b 6699 333c
000002c0: e60d 7f3c 8737 f8ba 3419 8fbb a68c f33c
000002d0: 08b6 353b 8787 a53b e424 353c f2a4 a73c
000002e0: 3db7 883c 069d fc39 2cfc 6a3c f80d 9abb
000002f0: 4ffe 7a3b 1f75 32bc 04e5 583b 795d a33b
00000300: 875c 8e3c 09b9 efbb ca61 cf3b ce25 85bb
00000310: 2b24 6f3b 3c44 b03c a7fc 2ebc 1eb1 043c
00000320: ce3f 10bc 67be bd3b 3b72 a63c bb61 6d3b
00000330: a24d bd3b b5fb 283c 4da7 0e3c 78d5 2b3c
00000340: 3fe5 ffbb f087 063c 60e5 673c 1540 1f3b
00000350: 769a ba3c 783c c33b a73d 713c ecc0 1fbb
00000360: 11d0 d03b 3c73 5fbb 1d30 923b 4683 c3bb
00000370: 9c70 893c 0000 0000 f88e f13b 4440 083c
00000380: d331 3cbc fe43 833c bca9 b43b ea49 ac3c
00000390: 6c7d 90bc 5f36 63bb 18db 003c 3601 ea3a
000003a0: 538a 9ebb c534 823b a94b 953c 1b2d 493c
000003b0: 88de b43b 71e1 de3b 6f3a 263b 6e22 d23b
000003c0: ca16 8fbb f0fa 69bb 1b9f 1aba f3e4 1f3c
000003d0: 4f70 5e3c 3975 bdbb f68d a63b 871f 0fbc
000003e0: f169 fc3b c624 eeba 3221 7e3b 4c71 283c
000003f0: 1ea0 883c 6bbb 06bc b09a df3b 4a8a 8c3c

actor.2.weight f4 [3, 256]
0.013151992 0.009133472 0.015141688 0.016703894 0.0046281135 -0.0067873523 0.0048089824 0.0077609867
0.0011248095 -0.0052541937 0.0027729734 0.027783802 -0.0072197113 0.014749386 0.015992764 0.012016788
-0.0059719617 0.00572527 -0.0044142273 0.021789277 -0.0036841885 0.005645095 0.0021949713 0.0007641289
-0.002350587 0.007681214 -0.0005146655 0.033218045 -0.008743614 0.0006563363 -0.0030441894 -0.0013587247
0.0050442657 0.00849974 -0.005143026 -0.014961998 0.0045523834 0.008595392 0.014624217 0.0075203315
-0.0066181235 -0.004949889 -0.0054116 0.026491577 -0.0023667314 0.009440445 0.0087497085 0.025353195
-0.033587027 0.01969158 -0.004755784 0.0006736703 0.018520394 0.004672539 0.011755097 0.01627563
0.0051541645 0.011515179 0.017213305 0.008796704 0.017374355 -0.0035780414 -0.011639588 0.009849663
0.0028360672 -0.00066645746 -0.005039761 0.0077202087 0.028642267 0.015962696 0.010002625 0.00079544523
-0.0128585575 0.014151247 0.0149287535 -0.0025787882 -0.0027525865 0.019475536 0.016709376 -0.0059963786
-0.008718109 0.012431071 0.01264054 0.0040807948 -5.5970126e-05 0.018590497 0.0074562198 0.025767
0.008429918 0.012871772 -0.019439735 -0.03992174 0.015965076 -0.036311798 0.0140669225 0.0038265407
0.028295489 -0.0006334946 -0.0013149532 -0.0069533032 0.025012486 0.01888781 0.0016746412 0.013828085
-0.0031917212 -0.0038086001 0.039362133 0.0021061704 0.015308184 0.008179061 0.003945868 0.006000242
0.033880852 0.018229935 0.014693873 -0.003699292 0.031975195 0.018282881 -0.00045457552 -0.0018714508
0.017000869 -0.01281045 0.032844808 0.007804867 0.006523136 0.01294879 -0.0035931668 -0.0032731686
0.018120652 0.011708831 -0.024274262 0.01988005 0.004473276 0.00070649764 0.02250975 -0.002409701
-0.008042288 -0.017018823 0.0005873147 0.04183507 0.00893811 0.00035630286 0.005659501 0.015124956
0.015998174 0.00024754895 0.02080035 0.027281513 0.0020432498 0.006753451 -0.0022861906 0.040540967
0.0024491057 0.010557034 0.020022454 0.004994662 0.0064246077 0.015152294 0.01768671 0.012740192
0.010310551 0.020202728 0.006633194 0.015468109 -0.009665071 -0.024284171 0.020639542 -0.0120329335
-0.0021031357 0.0029263238 0.00016816324 -0.0004920214 0.021181857 0.007364842 0.02610307 0.017372666
0.0020917442 0.0012549259 0.0056823483 0.033583816 0.003988095 0.009063805 0.017175382 0.030878577
0.005912386 0.0096771205 0.016668534 -0.016625965 -0.014402792 -0.0075080306 0.009818526 0.00679314
0.016998002 0.008192969 0.013889663 -0.0016536515 0.01109294 0.029465524 -0.00031344616 0.013473992
-0.0016747724 0.014199038 0.021915346 0.008569855 0.020927189 0.024934588 0.01202747 -0.008106033
0.0053907926 0.010026979 0.02238413 0.007709618 -0.034881067 0.008612205 0.018890977 0.012612114
0.0033780404 -0.0003247323 0.007785162 -0.013038106 0.038981043 -0.00064661034 0.013113862 0.019833187
0.0019006967 0.020945093 0.014639731 0.030506395 0.00085183175 -0.00026644487 -0.002537807 0.019932333
0.012163273 0.0043921187 0.0064315014 0.021821676 0.015916027 0.00730073 0.017328233 0.008474851
-0.0014929168 -0.0032793889 0.0016738755 0.0318748 -0.025106316 -0.0017216861 0.014544813 -0.020563217
-0.027987765 0.008215909 0.02139619 -0.014655041 0.015255321 0.0012115961 -0.033571713 0.035341676
00000000: 747b 573c 8fa4 153c d814 783c 9bd6 883c
00000010: 6ea7 973b 7068 debb ab94 9d3b e04f fe3b
00000020: 586e 933a 5f2b acbb c6ba 353b db9a e33c
00000030: 5493 ecbb 69a7 713c 4203 833c 10e2 443c
00000040: 72b0 c3bb 0c9b bb3b 39a5 90bb 6d7f b23c
00000050: 6d72 71bb 7dfa b83b 82d9 0f3b d34f 483a
00000060: 4e0c 1abb b1b2 fb3b 9eea 06ba a50f 083d
00000070: 6041 0fbc fc0d 2c3a 0681 47bb 3c17 b2ba
00000080: 5e4a a53b 7e42 0b3c d486 a8bb 2b23 75bc
00000090: 292c 953b b0d3 0c3c 699a 6f3c 1d6d f63b
000000a0: d8dc d8bb ae32 a2bb cb53 b1bb dd04 d93c
000000b0: 2a1b 1bbb 19ac 1a3c f05a 0f3c 81b1 cf3c
000000c0: 8d92 09bd 3d50 a13c 68d6 9bbb 4099 303a
000000d0: 15b8 973c 191c 993b 7398 403c 7854 853c
000000e0: 44e4 a83b 29aa 3c3c eb02 8d3c 0d20 103c
000000f0: aa54 8e3c 937d 6abb f8b3 3ebc 7b60 213c
00000100: 50dd 393b 34b5 2eba 9424 a5bb cef9 fc3b
00000110: 30a3 ea3c 33c4 823c 0de2 233c 6d85 503a
00000120: b3ac 52bc a2da 673c bb97 743c e300 29bb
00000130: bd64 34bb 298b 9f3c 1ae2 883c 457d c4bb
00000140: 66d6 0ebc b1ab 4b3c 441a 4f3c 30b8 853b
00000150: 77c1 6ab8 194b 983c 4e53 f43b 5115 d33c
00000160: a41d 0a3c 20e4 523c 1440 9fbc fa84 23bd
00000170: 31c9 823c aebb 14bd f378 663c b3c6 7a3b
00000180: f1cb e73c 1a11 26ba 825a acba 89d8 e3bb
00000190: fce6 cc3c 9cba 9a3c a27f db3a 318f 623c
000001a0: 322c 51bb b599 79bb 303a 213d ad07 0a3b
000001b0: 2dcf 7a3c 7801 063c 574c 813b ae9d c43b
000001c0: a6c6 0a3d f256 953c 92be 703c d26f 72bb
000001d0: 6cf8 023d fbc5 953c 1854 eeb9 784b f5ba
000001e0: 6845 8b3c ece2 51bc 4788 063d f8bf ff3b
000001f0: 08c0 d53b 2927 543c 567b 6bbb a882 56bb
00000200: c371 943c 66d6 3f3c d1da c6bc 7ddb a23c
00000210: 8f94 923b 4134 393a 5e66 b83c 13ec 1dbb
00000220: cdc3 03bc 0f6b 8bbc 06f6 193a 405b 2b3d
00000230: 2771 123c 29ce ba39 5673 b93b aace 773c
00000240: 9a0e 833c 75c9 8139 7f65 aa3c 7b7d df3c
00000250: 0be8 053b 0e4c dd3b ead3 15bb 490e 263d
00000260: 2d81 203b 69f7 2c3c 2106 a43c 43aa a33b
00000270: 8485 d23b 5441 783c b8e3 903c 3dbc 503c
00000280: 96ed 283c 3180 a53c 445b d93b f46d 7d3c
00000290: 3f5a 1ebc 99ef c6bc 4214 a93c c825 45bc
000002a0: c3d4 09bb 91c7 3f3b fa54 3039 fffa 00ba
000002b0: 9385 ad3c c654 f13b 1bd6 d53c 1f51 8e3c
000002c0: a515 093b 537c a43a fe32 ba3b 2f8f 093d
000002d0: 91ae 823b 5b80 143c 63b3 8c3c 12f5 fc3c
000002e0: b0bc c13b c98c 1e3c 738c 883c 2d33 88bc
000002f0: b0f9 6bbc ed05 f6bb e2dd 203c fd98 de3b
00000300: 653f 8b3c cd3b 063c 7891 633c 56bf d8ba
00000310: 2abf 353c af61 f13c 0856 a4b9 05c2 5c3c
00000320: 0984 dbba 15a3 683c d087 b33c 9468 0c3c
00000330: 7f6f ab3c 9f43 cc3c de0e 453c 2bcf 04bc
00000340: 3fa5 b03b 3348 243c ec5e b73c f7a0 fc3b
00000350: 73df 0ebd 351a 0d3c 40c1 9a3c 0aa3 4e3c
00000360: 1d62 5d3b d540 aab9 ac1a ff3b c89d 55bc
00000370: 96aa 1f3d 4981 29ba 86db 563c 3579 a23c
00000380: cc20 f93a 0b95 ab3c 7bdb 6f3c 8ce8 f93c
00000390: 764d 5f3a a0b1 8bb9 5651 26bb 2249 a33c
000003a0: 7748 473c c3eb 8f3b 58bf d23b 5fc3 b23c
000003b0: 5462 823c f63a ef3b f0f3 8d3c 1ada 0a3c
000003c0: faad c3ba 04eb 56bb f165 db3a 268f 023d
000003d0: c3ab cdbc 33aa e1ba 5e4d 6e3c 3174 a8bc
000003e0: 9946 e5bc 059c 063c 1047 af3c b21b 70bc
000003f0: 74f1 793c 6bce 9e3a 7e82 09bd 6fc2 103d

actor.2.bias f4 [3]
0.011303995 -0.004767545 -0.00757119
00000000: 6434 393c 1139 9cbb bf17 f8bb

critic.0.weight f4 [256, 128]
-0.024922872 -0.016697606 -0.0025770299 -0.05164127 -0.025566885 0.14094295 -0.009111173 0.10271185
0.028684862 -0.28958637 0.08216194 0.038223878 -0.069576286 -0.027888458 0.03615064 0.15247487
0.010093831 -0.054341227 0.09044544 0.07007116 -0.13430086 -0.044284284 0.04111846 -0.114115134
0.026767746 0.13109332 0.18439688 0.0025019953 0.040687628 -0.007266317 -0.049708594 0.037996564
-0.0075650513 -0.002062797 -0.01719194 -0.20038028 -0.028889565 -0.004582785 -0.042091247 -0.03484406
0.19349322 -0.02569427 -0.10554238 -0.032417104 -0.06468284 -0.15018727 -0.07444044 -0.17987552
-0.0021325492 -0.002420311 -0.12497857 0.11247169 -0.060705975 -0.18887267 -0.11554841 0.048859205
0.06815834 -0.16808267 -0.28579438 0.042667687 0.047062244 0.018169023 -0.00030647375 -0.099510126
0.027018059 0.029166989 -0.014676054 -0.10881753 -0.029991303 -0.107970335 -0.05569399 -0.09545953
-0.113829 -0.09230892 -0.03988535 -0.050419345 -0.08257789 -0.04754532 -0.050612845 0.00842296
-0.03438236 -0.006544191 -0.08914068 -0.12046372 0.02470948 -0.12347471 -0.096060514 0.11676818
0.029900707 0.0124807535 -0.059035413 -0.1198741 -0.050346456 -0.08543789 0.034594934 -0.025849912
-0.0133865 -0.024066705 -0.10688865 -0.120454155 -0.084565684 0.039414823 0.08880924 -0.13654296
-0.13937102 0.09872417 0.021587448 -0.2047484 0.093137406 0.07193417 0.036222562 0.05379028
-0.006390956 0.04966308 -0.015276832 -0.19766411 -0.0006524044 -0.050598234 -0.02327444 0.05806344
-0.0003932634 -0.0037666524 0.07293569 0.060660742 0.0445403 0.059479672 0.051884152 0.13047239
0.00060727884 -0.005274009 0.0024126335 0.07389006 0.04742553 0.11268448 -0.06069316 0.03659151
0.10595126 0.020696757 -0.020542013 -0.06315552 -0.07069017 0.17936295 0.0035064123 0.040276494
0.012106854 0.04328749 0.13799769 0.057791147 0.06971672 0.13016203 0.090753235 0.07091737
-0.10521836 0.14561689 -0.13156082 -0.046134755 0.10551772 0.107319914 -0.01748739 0.07400685
0.028233873 0.06321482 -0.09544109 0.014126655 -0.16533457 -0.019534942 -0.054136723 0.1259182
-0.0057684816 0.070726 -0.013594263 -0.06091178 0.064459525 0.05092033 -0.1538442 0.10019771
0.042392623 0.064381026 -0.033419326 0.073421694 0.08509384 0.04690623 0.1685988 0.011338494
-0.0061329906 0.11958827 -0.08061066 0.12117956 -0.046521872 -0.12391278 0.15433149 -0.15208113
0.009849691 -0.04550508 -0.19841842 -0.13006413 -0.0055173277 0.032841455 -0.025625942 0.08243592
0.1368824 -0.032125548 -0.14938399 0.045993462 0.020263625 -0.0586217 -0.0021519973 0.1551421
0.05389682 0.050027706 0.037680663 -0.0069747088 0.010633066 -0.071864896 -0.008469706 -0.038496625
-0.015264585 0.19805276 -0.11133843 0.10823974 -0.06769126 0.05484668 0.005223222 0.06451255
0.24201629 0.15112603 0.13079049 -0.20401098 0.09936226 -0.026539268 -0.054163244 -0.03315571
-0.012238122 -0.012436106 0.19529876 0.038328934 0.021104313 -0.04123867 -0.0061310027 0.19541392
0.018700434 -0.11778066 0.03644441 -0.119804434 0.09283903 -0.1329495 -0.096294574 -0.15462242
-0.13709876 -0.012149826 -0.04142782 -0.031871025 0.11735146 0.091411516 -0.018551644 -0.09068599
00000000: 0d2b ccbc 6bc9 88bc 63e3 28bb cc85 53bd
00000010: a571 d1bc 5953 103e 0847 15bc 975a d23d
00000020: 84fc ea3c aa44 94be 8544 a83d a490 1c3d
00000030: 037e 8ebd 5676 e4bc b212 143d 5f22 1c3e
00000040: 9960 253c e894 5ebd 753b b93d 7881 8f3d
00000050: 2a86 09be 7063 35bd d56b 283d 32b5 e9bd
00000060: 0848 db3c 543d 063e 89d2 3c3e 84f8 233b
00000070: 12a8 263d 491a eebb 3d9b 4bbd 49a2 1b3d
00000080: 40e4 f7bb fe2f 07bb 1dd6 8cbc 7d30 4dbe
00000090: cfa9 ecbc 302b 96bb df67 2cbd a5b8 0ebd
000000a0: 1623 463e ca7c d2bc 9a26 d8bd ccc7 04bd
000000b0: 7078 84bd b1ca 19be 3b74 98bd 4a31 38be
000000c0: 3dc2 0bbb 159e 1ebb c4f4 ffbd 8f57 e63d
000000d0: d4a6 78bd d667 41be a5a4 ecbd 9720 483d
000000e0: 9a96 8b3d dd1d 2cbe a453 92be 50c4 2e3d
000000f0: 57c4 403d 34d7 943c 36ae a0b9 f7cb cbbd
00000100: fa54 dd3c 9cef ee3c d573 70bc badb debd
00000110: 52b0 f5bc 8d1f ddbd 621f 64bd 4980 c3bd
00000120: 2e1f e9bd 760c bdbd d25e 23bd 8484 4ebd
00000130: 991e a9bd e2be 42bd 6a4f 4fbd 7400 0a3c
00000140: 84d4 0cbd a770 d6bb 648f b6bd afb5 f6bd
00000150: 896b ca3c 4fe0 fcbd 60bb c4bd 2824 ef3d
00000160: 54f2 f43c 137c 4c3c 1ecf 71bd 8d80 f5bd
00000170: 1638 4ebd 0ffa aebd 6bb3 0d3d 32c3 d3bc
00000180: 0d53 5bbc 8a27 c5bc 70e8 dabd abb0 f6bd
00000190: c630 adbd 7071 213d 9ee1 b53d ebd1 0bbe
000001a0: 47b7 0ebe e62f ca3d 29d8 b03c 91a9 51be
000001b0: d3be be3d 3952 933d 1c5e 143d 3253 5c3d
000001c0: 3a6b d1bb 846b 4b3d ad4b 7abc 7668 4abe
000001d0: 1e06 2bba 1840 4fbd 0aaa bebc eed3 6d3d
000001e0: ec2e ceb9 f1d9 76bb 4f5f 953d 6677 783d
000001f0: e46f 363d f5a0 733d 7a84 543d 8e9a 053e
00000200: cb31 1f3a 98d1 acbb 461d 1e3b ac53 973d
00000210: 4641 423d 1fc7 e63d 6499 78bd fbe0 153d
00000220: f9fc d83d 3f8c a93c b947 a8bc ae57 81bd
00000230: 02c6 90bd ecaa 373e d6cb 653b f7f8 243d
00000240: d35b 463c 394e 313d 444f 0d3e 69b6 6c3d
00000250: a4c7 8e3d 3249 053e d5dc b93d 203d 913d
00000260: b97c d7bd 981c 153e e1b7 06be ccf7 3cbd
00000270: ad19 d83d 8bca db3d b741 8fbc e790 973d
00000280: b94a e73c c676 813d 9e76 c3bd 7c73 673c
00000290: 774d 29be be07 a0bc 78be 5dbd b3f0 003e
000002a0: 8805 bdbb cbd8 903d 79ba 5ebc a17e 79bd
000002b0: 5b03 843d d691 503d 5589 1dbe 7534 cd3d
000002c0: e3a3 2d3d 33da 833d b4e2 08bd 1d5e 963d
000002d0: ae45 ae3d bf20 403d 2aa5 2c3e 17c5 393c
000002e0: 41f7 c8bb b2ea f43d 3417 a5bd fd2c f83d
000002f0: b88d 3ebd fcc5 fdbd 1309 1e3e 28bb 1bbe
00000300: 9960 213c 8963 3abd 332e 4bbe 882f 05be
00000310: b3ca b4bb c384 063d 7fed d1bc 2ad4 a83d
00000320: e62a 0c3e 1496 03bd 1ef8 18be a463 3c3d
00000330: e7ff a53c 4f1d 70bd 8608 0dbb 92dd 1e3e
00000340: e9c2 5c3d dae9 4c3d 0a57 1a3d 198c e4bb
00000350: 5036 2e3c e72d 93bd 86c4 0abc a3ae 1dbd
00000360: 4f18 7abc 58ce 4a3e 6705 e4bd ccac dd3d
00000370: b7a1 8abd eaa6 603d 9027 ab3b 281f 843d
00000380: 1ed3 773e c8c0 1a3e f1ed 053e 41e8 50be
00000390: 717e cb3d e168 d9bc 47da 5dbd 48ce 07bd
000003a0: 6782 48bc cfc0 4bbc 66fc 473e cdfe 1c3d
000003b0: f4e2 ac3c e1e9 28bd 94e6 c8bb 961a 483e
000003c0: a731 993c fd36 f1bd bc46 153d 075c f5bd
000003d0: 6422 be3d ea23 08be 1736 c5bd 5755 1ebe
000003e0: 9e63 0cbe 1010 47bc 38b0 29bd 318b 02bd
000003f0: f655 f03d f635 bb3d 9ef9 97bc 94b9 b9bd

critic.0.bias f4 [256]
-0.008264517 0.0017989498 0.0062330784 -0.0051845172 -0.0017439766 -0.0066540656 -0.0077268463 0.0035488403
0.0016672919 0.00068951864 -0.0027682325 -0.00347894 -0.0012247951 -0.012025949 -0.001322274 0.0015026084
2.1742268e-05 -0.0043489574 -0.00010840097 0.0032741064 -0.017097818 -0.010079335 -0.012455473 -0.0031587721
0.0015589145 -0.004847519 0.0023150977 0.003971058 -0.0014655314 0.002415957 -0.0042191274 -0.0076593603
0.0018374032 -0.0060369885 0.0009275507 -0.018816423 -0.0025324307 -0.010402794 0.00043763718 0.0005244354
0.0014149158 -0.0024885149 0.0026164632 -0.0010468025 -0.00048223417 -0.00861845 -0.0057466044 0.013788329
-0.005778078 -0.012578981 -0.011153435 -0.0003331522 0.019590477 -0.010385631 -0.00995284 -0.0006962726
-0.0065692407 -0.0027488854 -0.0055084075 0.006140194 0.00097003736 -0.0017650045 0.004996929 0.017057056
-0.021900892 -0.017234927 0.014320638 -0.0017189382 0.0014761525 -0.0043509114 -0.01416537 0.0025239142
-0.015067144 -0.0012233646 0.0014682853 -0.00039166282 -0.0022758625 -0.0016194166 -0.0015343148 0.0031207886
-0.0022488243 0.009313535 -0.0048295995 0.00069482863 -0.010013168 0.0030934704 -0.007561455 0.0017301532
0.0029646235 0.008073089 0.0036530362 -0.0063279434 0.0010358816 -0.008923165 -0.002605527 0.00026038627
-0.00095075276 -0.00030250745 -0.0031021733 0.0008791866 -0.0045757685 0.0028830625 0.00904842 -0.0013452831
-0.0060377023 -0.0070569585 -0.00468971 -0.0038644725 -0.010671345 -0.0037192192 0.0027306215 -0.0062436806
-0.011934854 0.0007911051 0.0037277346 -0.0059103477 -0.012760953 0.0028627429 0.004295646 0.011615373
-0.011878685 -0.0068725985 0.00393674 0.0016577927 -0.00462051 -0.0053389934 0.0005232743 0.0048261723
0.006706181 0.00037069735 0.0005035218 -0.01316761 -0.00041603242 -0.00053140125 -0.004704128 -0.013596448
-0.0030284503 0.0165106 0.010742041 -0.011701859 -0.004544512 -0.0040938393 -0.010555957 -0.012845195
0.002270105 -0.0009904997 0.007977568 -0.012728173 -0.0029761624 -0.012065882 -0.006460342 -0.0029023753
-0.010060394 0.0015989239 0.004617059 -0.0016910344 0.00096921274 -0.0017908602 -0.00094192877 -0.003905577
0.0010457939 -0.0029403886 -0.0063644843 -0.007779192 -0.00396686 -0.02081425 -0.016934644 -0.00935669
0.0066582086 -0.00052737794 -0.004129468 -0.011112856 -0.0048650587 -0.006915973 -0.0024368172 -0.0007101159
-0.011155274 -0.013850959 0.00448455 0.0194006 -0.004109305 -0.0011182087 -0.0036407483 -0.0060425033
-0.0069570853 0.0006203868 0.00029465667 -0.009148561 -0.001730796 0.0002883432 0.008446218 -0.0012582241
-0.0043288753 0.0011649155 0.02868854 0.0055943546 0.0033995737 -0.01996269 -0.013897399 -0.012164225
0.0025133572 -0.016553437 -0.0025595503 -0.012430098 -0.005228591 -0.004902417 -0.008332163 -0.0029499389
-0.004021141 -0.0042671105 -0.0005878007 -0.003137693 0.0037265413 -0.010893569 0.004547617 6.330268e-05
-0.014031964 -0.009348388 -0.004999596 0.021925041 0.0019847576 0.007584415 -0.008268954 -0.0026459391
-0.0020935684 0.004745687 -0.0049121385 -0.00824879 -0.0032967888 0.009373802 0.003467463 -0.0047062603
-0.00039936317 -0.010918812 -0.006300263 -0.00100982 -0.012494567 0.009636492 0.00053748797 0.0037586254
-0.0024579645 -0.0033865715 -0.008726739 -0.008069766 -0.0020519057 0.004276633 -0.006544931 0.0135998055
-0.012678616 0.0008954107 0.0023878757 0.00016209314 -0.00095884455 -0.00845834 -0.0025324589 0.0011390913
00000000: e667 07bc bdca eb3a da3e cc3b e2e2 a9bb
00000010: 2596 e4ba 590a dabb 7c31 fdbb a993 683b
00000020: 0889 da3a d0c0 343a 3c6b 35bb eefe 63bb
00000030: 4e89 a0ba 7c08 45bc 2750 adba 2cf3 c43a
00000040: 2a63 b637 b381 8ebb 5455 e3b8 6492 563b
00000050: b910 8cbc cc23 25bc 0a12 4cbc 6703 4fbb
00000060: 7e54 cc3a f0d7 9ebb e5b8 173b a61f 823b
00000070: 1317 c0ba 0855 1e3b 9b40 8abb 5ffb fabb
00000080: 05d5 f03a eed1 c5bb e026 733a e624 9abc
00000090: 23f7 25bb 7b70 2abc ab72 e539 447a 093a
000000a0: b274 b93a 5a16 23bb f878 2b3b dd34 89ba
000000b0: 60d4 fcb9 6634 0dbc 034e bcbb 72e8 613c
000000c0: 0856 bdbb 1218 4ebc e6bc 36bc eeaa aeb9
000000d0: 357c a03c 7e28 2abc 3d11 23bc 1086 36ba
000000e0: c942 d7bb a526 34bb df7f b4bb ae33 c93b
000000f0: 1b4a 7e3a b957 e7ba 47bd a33b 3dbb 8b3c
00000100: 8069 b3bc 4330 8dbc 1ca1 6a3c ff4d e1ba
00000110: 757b c13a 1792 8ebb de15 68bc 4168 253b
00000120: 2fdc 76bc 4e59 a0ba 7b73 c03a 1858 cdb9
00000130: a326 15bb 9b42 d4ba 101b c9ba 2586 4c3b
00000140: 0361 13bb cc97 183c 9e41 9ebb 2925 363a
00000150: 450e 24bc d2bb 4a3b 15c6 f7bb 4fc6 e23a
00000160: 214a 423b fd44 043c c767 6f3b a35a cfbb
00000170: 6bc6 873a 7732 12bc 7dc1 2abb 7484 8839
00000180: f03b 79ba dd99 9eb9 d54d 4bbb 3779 663a
00000190: 54f0 95bb c3f1 3c3b d33f 143c 3654 b0ba
000001a0: ebd7 c5bb 0f3e e7bb 24ac 99bb 1743 7dbb
000001b0: ddd6 2ebc 25be 73bb 3af4 323b ca97 ccbb
000001c0: 688a 43bc 2a62 4f3a 024d 743b 97ab c1bb
000001d0: 5113 51bc db9c 3b3b 7ec2 8c3b 684e 3e3c
000001e0: d19e 42bc 8933 e1bb c5ff 803b 4b4a d93a
000001f0: a667 97bb b9f2 aebb 582c 093a de24 9e3b
00000200: 86bf db3b 285a c239 c7fe 033a f6bc 57bc
00000210: ed1e dab9 bc4d 0bba 1625 9abb a3c3 5ebc
00000220: f778 46bb 3d41 873c 63ff 2f3c 27b9 3fbc
00000230: 21ea 94bb 9d25 86bb e5f2 2cbc a774 52bc
00000240: 0bc6 143b a8d3 81ba 58b4 023c d489 50bc
00000250: b80b 43bb faaf 45bc 47b1 d3bb c735 3ebb
00000260: 5ad4 24bc fc92 d13a b34a 973b b3a5 ddba
00000270: c412 7e3a 4cbb eaba c5eb 76ba b5f4 7fbb
00000280: 0513 893a 89b3 40bb 2a8d d0bb 98e8 febb
00000290: 6ffc 81bb a582 aabc 86ba 8abc cd4c 19bc
000002a0: 1a2d da3b bc3f 0aba 7d50 87bb b212 36bc
000002b0: 126b 9fbb 639f e2bb 02b3 1fbb 1227 3aba
000002c0: 9cc4 36bc 22ef 62bc 22f3 923b 02ee 9e3c
000002d0: 59a7 86bb dc90 92ba 9f99 6ebb 3100 c6bb
000002e0: 43f8 e3bb 74a1 223a 267c 9a39 d9e3 15bc
000002f0: e0db e2ba c52c 9739 0262 0a3c ffea a4ba
00000300: 3dd9 8dbb 14b0 983a 3b04 eb3c d950 b73b
00000310: 62cb 5e3b cc88 a3bc ebb1 63bc 754c 47bc
00000320: 23b7 243b 139b 87bc 21be 27bb 9ca7 4bbc
00000330: 9a54 abbb 74a4 a0bb a083 08bc c353 41bb
00000340: c7c3 83bb 1ed3 8bbb a316 1aba c1a1 4dbb
00000350: fd38 743b f17a 32bc 2d04 953b 5ec1 8438
00000360: 53e6 65bc fb29 19bc a7d3 a3bb 259c b33c
00000370: b512 023b af86 f83b 827a 07bc 7e67 2dbb
00000380: 4034 09bb b581 9b3b 01f6 a0bb ef25 07bc
00000390: f00e 58bb 9394 193c 603e 633b f936 9abb
000003a0: 9e61 d1b9 d1e4 32bc 7072 cebb f05b 84ba
000003b0: 03b6 4cbc 60e2 1d3c 35e6 0c3a 4553 763b
000003c0: cd15 21bb 3ef1 5dbb 99fa 0ebc 0d37 04bc
000003d0: 4479 06bb ff22 8c3b dc76 d6bb b8d1 5e3c
000003e0: f8b9 4fbc ffb9 6a3a e87d 1c3b 8cf7 2939
000003f0: f85a 7bba d994 0abc 9cf7 25bb 904d 953a
